…
.py:3445: calling dropout (from tensorflow.python.ops.nn_ops) with keep_prob is deprecated and will be removed in a future version.\n","Instructions for updating:\n","Please use `rate` instead of `keep_prob`. Rate should be set to `rate = 1 - keep_prob`.\n","__________________________________________________________________________________________________\n","Layer (type)                    Output Shape         Param #     Connected to                     \n","==================================================================================================\n","input_1 (InputLayer)            (None, 18)           0                                            \n","__________________________________________________________________________________________________\n","dense_1 (Dense)                 (None, 1024)         19456       input_1[0][0]                    \n","__________________________________________________________________________________________________\n","batch_normalization_1 (BatchNor (None, 1024)         4096        dense_1[0][0]                    \n","__________________________________________________________________________________________________\n","dropout_1 (Dropout)             (None, 1024)         0           batch_normalization_1[0][0]      \n","__________________________________________________________________________________________________\n","dense_2 (Dense)                 (None, 1024)         1049600     dropout_1[0][0]                  \n","__________________________________________________________________________________________________\n","batch_normalization_2 (BatchNor (None, 1024)         4096        dense_2[0][0]                    \n","__________________________________________________________________________________________________\n","dropout_2 (Dropout)             (None, 1024)         0           batch_normalization_2[0][0]      \n","__________________________________________________________________________________________________\n","dense_3 (Dense)                 (None, 512)          524800      dropout_2[0][0]                  \n","__________________________________________________________________________________________________\n","dense_4 (Dense)                 (None, 512)          262656      dense_3[0][0]                    \n","__________________________________________________________________________________________________\n","dense_7 (Dense)                 (None, 1024)         525312      dense_3[0][0]                    \n","__________________________________________________________________________________________________\n","batch_normalization_3 (BatchNor (None, 512)          2048        dense_4[0][0]                    \n","__________________________________________________________________________________________________\n","batch_normalization_6 (BatchNor (None, 1024)         4096        dense_7[0][0]                    \n","__________________________________________________________________________________________________\n","dropout_3 (Dropout)             (None, 512)          0           batch_normalization_3[0][0]      \n","__________________________________________________________________________________________________\n","dropout_6 (Dropout)             (None, 1024)         0           batch_normalization_6[0][0]      \n","__________________________________________________________________________________________________\n","dense_5 (Dense)                 (None, 512)          262656      dropout_3[0][0]                  \n","__________________________________________________________________________________________________\n","dense_6 (Dense)                 (None, 1024)         525312      dense_3[0][0]                    \n","__________________________________________________________________________________________________\n","dense_8 (Dense)                 (None, 512)          524800      dropout_6[0][0]                  \n","__________________________________________________________________________________________________\n","batch_normalization_4 (BatchNor (None, 512)          2048        dense_5[0][0]                    \n","__________________________________________________________________________________________________\n","batch_normalization_5 (BatchNor (None, 1024)         4096        dense_6[0][0]                    \n","__________________________________________________________________________________________________\n","batch_normalization_7 (BatchNor (None, 512)          2048        dense_8[0][0]                    \n","__________________________________________________________________________________________________\n","dropout_4 (Dropout)             (None, 512)          0           batch_normalization_4[0][0]      \n","__________________________________________________________________________________________________\n","dropout_5 (Dropout)             (None, 1024)         0           batch_normalization_5[0][0]      \n","__________________________________________________________________________________________________\n","dropout_7 (Dropout)             (None, 512)          0           batch_normalization_7[0][0]      \n","__________________________________________________________________________________________________\n","concatenate_1 (Concatenate)     (None, 2048)         0           dropout_4[0][0]                  \n","                                                                 dropout_5[0][0]                  \n","                                                                 dropout_7[0][0]                  \n","__________________________________________________________________________________________________\n","dense_9 (Dense)                 (None, 1024)         2098176     concatenate_1[0][0]              \n","__________________________________________________________________________________________________\n","batch_normalization_8 (BatchNor (None, 1024)         4096        dense_9[0][0]                    \n","__________________________________________________________________________________________________\n","dropout_8 (Dropout)             (None, 1024)         0           batch_normalization_8[0][0]      \n","__________________________________________________________________________________________________\n","dense_10 (Dense)                (None, 1024)         1049600     dropout_8[0][0]                  \n","__________________________________________________________________________________________________\n","batch_normalization_9 (BatchNor (None, 1024)         4096        dense_10[0][0]                   \n","__________________________________________________________________________________________________\n","dropout_9 (Dropout)             (None, 1024)         0           batch_normalization_9[0][0]      \n","__________________________________________________________________________________________________\n","dense_11 (Dense)                (None, 512)          524800      dropout_9[0][0]                  \n","__________________________________________________________________________________________________\n","batch_normalization_10 (BatchNo (None, 512)          2048        dense_11[0][0]                   \n","__________________________________________________________________________________________________\n","dense_12 (Dense)                (None, 1024)         525312      batch_normalization_10[0][0]     \n","__________________________________________________________________________________________________\n","dense_13 (Dense)                (None, 1)            1025        dense_12[0][0]                   \n","==================================================================================================\n","Total params: 7,926,273\n","Trainable params: 7,909,889\n","Non-trainable params: 16,384\n","__________________________________________________________________________________________________\n"],"name":"stdout"}]},{"metadata":{"id":"5SIV8O9XWsfc","co
…
